titanic_model.pth (torch, 760178 bytes, 37 tensors)

weight f4 [512, 12]
0	0xbe990f4c	-0.29894483
1	0xbcc2454d	-0.023714686
2	0x3dac26b7	0.08405822
3	0xbe64e372	-0.22352389
4	0xbe08c9a2	-0.13358167
5	0xbb69130b	-0.003556433
6	0x3e572c82	0.21013072
7	0x3caceac0	0.021108031
8	0xbdc5f984	-0.09666732
9	0x3be3cf57	0.006952207
10	0xbe30fed9	-0.17284717
11	0xbe47b153	-0.19501238
12	0xbce669e6	-0.028126668
13	0xbe4553b4	-0.19270211
14	0x3c837fdb	0.016052177
15	0x3e665bcf	0.2249596
16	0xbe4ef1ca	-0.20209423
17	0xbe623d03	-0.22093587
18	0xbe07b218	-0.13251531
19	0xbe827da9	-0.25486496
20	0x3e5daa55	0.21647008
21	0x3e03e6d6	0.12881026
22	0xbe92c1a3	-0.28663358
23	0xbdfb506c	-0.12271199
24	0xbe4aa84d	-0.19790764
25	0xbe1cc923	-0.15311103
26	0xbc33e353	-0.010979491
27	0x3c25be08	0.010116108
28	0x3e875956	0.26435345
29	0xbe0ecb0d	-0.13944645
30	0xbba184a4	-0.004929142
31	0x3e80b68c	0.25139272
32	0xbda6b66c	-0.08140263
33	0x3d649417	0.055805292
34	0x3b99bf59	0.004692
35	0x3e17a522	0.14809087
36	0x3e9189c9	0.28425434
37	0x3e273cf2	0.16331843
38	0x3e1b55b1	0.15169407
39	0xbe8f1ab4	-0.2795006
40	0x3ebb92f4	0.36635554
41	0x3d581965	0.052758593
42	0xbdbefaaf	-0.09325158
43	0x3dd789be	0.10524319
44	0xbe1d3db1	-0.15355565
45	0x3e39a05d	0.1812758
46	0xbe6131dd	-0.21991678
47	0x3e556048	0.2083751
48	0xbda59f7a	-0.08087058
49	0x3cec3598	0.02883415
50	0xbde2fa5e	-0.1108291
51	0x3e299886	0.1656209
52	0x3e9c9e66	0.30589598
53	0xbe946cdd	-0.28989306
54	0xbea1056b	-0.31449446
55	0xbe50a108	-0.20373929
56	0xbe83ea04	-0.25764477
57	0x3e1ec386	0.15504274
58	0x3dd309e9	0.103046246
59	0xbd3ec4a2	-0.046574242
60	0xbe4c734e	-0.1996586
61	0x3e29fe28	0.16600859
62	0x3e836c26	0.25668448
63	0x3e6b5980	0.2298336
64	0x3d5e9ba7	0.05434766
65	0xbe2d37f0	-0.1691587
66	0xbde1dd3f	-0.110285275
67	0x3e3d52e8	0.18488657
68	0x3e108c74	0.14116079
69	0x3e1de179	0.15418042
70	0xbe893ef1	-0.26805833
71	0x3e1e6aef	0.1547048
72	0xbe5ab20a	-0.21356979
73	0x3ead7cfe	0.33884424
74	0x3e2af65c	0.16695541
75	0x3db77d76	0.08959477
76	0xbe15587b	-0.14584534
77	0x3e8e91db	0.27845654
78	0xbe707195	-0.23480828
79	0x3df01183	0.1172209
80	0xbeb90504	-0.3613664
81	0x3deac5b2	0.11463489
82	0x3e428ab7	0.18998228
83	0xbe096246	-0.13416395
84	0xbdb5f856	-0.08885257
85	0x3e38808b	0.18017785
86	0x3e867866	0.26263732
87	0xbe788489	-0.24269308
88	0xbd78e436	-0.060764514
89	0x3cdf4c91	0.02725819
90	0x3d57c46e	0.052677564
91	0x3de21647	0.11039405
92	0x3cd7a90a	0.026325721
93	0xbeb57ef3	-0.35448417
94	0x3e578e4e	0.21050379
95	0x3a113ec4	0.0005540664
96	0x3c7732ae	0.015087767
97	0x3c82351e	0.015894469
98	0x3d32f3b2	0.043689437
99	0x3d0f86fb	0.035040837
100	0xbc2fa14c	-0.0107196085
101	0x3d3fcf6a	0.046828665
102	0xbe58c005	-0.21167
103	0xbce6c699	-0.02817087
104	0xbe774065	-0.24145658
105	0xbe8ee1a4	-0.27906525
106	0x3d4af5df	0.049550887
107	0x3dc538c1	0.096299656
108	0xbe21b5c0	-0.15791988
109	0x3cbdaf77	0.023154957
110	0xbe4e3ef5	-0.20141204
111	0xbd8ea3db	-0.06964847
112	0xbe818e4c	-0.25303876
113	0x3e8eb809	0.27874783
114	0x3c51bd2d	0.012801451
115	0xbea124d5	-0.31473413
116	0xbd117f84	-0.035522
117	0x3da292e0	0.079381704
118	0xbd0ca8fc	-0.034340844
119	0xbdce09c4	-0.100604564
120	0x3e19b816	0.1501163
121	0xbeb199cf	-0.3468766
122	0x3ccbb339	0.024865733
123	0x3d0b4dc2	0.034009703
124	0xbe901bd0	-0.2814622
125	0x3e2dd2be	0.16974923
126	0xbe187b9b	-0.14890902
127	0xbdcec21f	-0.100956194
128	0x3e4374a4	0.19087464
129	0xbe19f78e	-0.15035841
130	0x3e9bb6d7	0.30412933
131	0x3e551f6b	0.20812766
132	0x3e8ae770	0.27129698
133	0xbe8ffd0a	-0.2812274
134	0x3e792059	0.24328746
135	0xbd861d14	-0.06548515
136	0xbd6efb95	-0.058345396
137	0x3e27a0b9	0.16369905
138	0x3e2cac39	0.16862573
139	0xbe57b1c7	-0.2106391
140	0xbde72789	-0.112868376
141	0xbe89f51a	-0.2694481
142	0xbdaabc9c	-0.08336756
143	0xbe64e52b	-0.22353046
144	0x3ea5d835	0.32391515
145	0xbe89f2f3	-0.26943168
146	0xbc6399e8	-0.013891675
147	0xbe71bb0a	-0.23606506
148	0x3db2409e	0.08703731
149	0x3e7d168f	0.24715637
150	0x3eaca604	0.3372041
151	0xbe27ee09	-0.16399397
152	0x3bca3f5d	0.0061721043
153	0xbc5569d8	-0.013025723
154	0xbb22c29b	-0.0024835232
155	0xbe3998ff	-0.1812477
156	0x3e1263df	0.1429591
157	0x3e5076b0	0.20357776
158	0x3e3754f0	0.17903495
159	0xbe287e44	-0.16454417
160	0xbe0e57ec	-0.13900727
161	0xbda9cde3	-0.08291223
162	0xbe4227ce	-0.18960497
163	0x3cce3bf9	0.025175082
164	0x3e3113b1	0.17292668
165	0x3d97a50c	0.07404527
166	0xbde61dfd	-0.112361886
167	0xbeaa93bb	-0.33315834
168	0x3e047e2f	0.1293876
169	0xbdc82aa3	-0.09773757
170	0x3e835dee	0.256576
171	0xbe31dc45	-0.17369182
172	0xbe7f78e4	-0.2494846
173	0x3e30ade8	0.1725384
174	0x3e70718a	0.23480812
175	0xbc04b927	-0.008100784
176	0x3eaaf39b	0.3338898
177	0xbd9369e7	-0.07197934
178	0x3e222077	0.15832697
179	0xbde2644f	-0.110542886
180	0x3e547c3e	0.2075052
181	0x3e14e6e3	0.14541201
182	0x3dbd5d4c	0.092463106
183	0xbce4c402	-0.027925495
184	0xbdc0f989	-0.09422595
185	0xbe75df09	-0.24010862
186	0xbb982fcb	-0.0046443692
187	0x3e39b39d	0.18134923
188	0xbe59dd93	-0.2127593
189	0xbe7eb2b6	-0.2487286
190	0x3db81c5e	0.089897856
191	0x3da86d25	0.08223943
192	0x3c8927fb	0.016742697
193	0x3c932fb3	0.01796708
194	0xbe2d1a2c	-0.16904515
195	0x3e87f800	0.26556396
196	0xbe55b1ed	-0.20868655
197	0xbbb4b169	-0.005514313
198	0xbe8ada09	-0.27119473
199	0x3e0e69bc	0.13907522
200	0x3cfaa567	0.030596448
201	0x3dc4edd6	0.09615676
202	0xbe131f18	-0.1436733
203	0xbe227d4c	-0.1586811
204	0x3d5b635c	0.053561553
205	0xbe168f1d	-0.14703031
206	0xbe2dd60d	-0.16976185
207	0x3de30bec	0.11086258
208	0xbd5cbd1c	-0.053891286
209	0xbe378109	-0.17920317
210	0x3db7d3d2	0.089759484
211	0x3e8e4159	0.2778423
212	0xbd961edb	-0.07330104
213	0x3e14c4b8	0.14528167
214	0x3e99b29e	0.30019087
215	0x3d847e8a	0.06469448
216	0xbdee08f8	-0.116228044
217	0xbcc5d198	-0.024147794
218	0x3d1e474e	0.03864222
219	0xbd26c7f8	-0.04071805
220	0x3e0a93ed	0.13532992
221	0xbe968b28	-0.29403043
222	0xbe90c590	-0.28275728
223	0xbe2ed3b4	-0.17072946
224	0xbe49c094	-0.19702369
225	0x3e11c0a7	0.14233647
226	0xbe1dc03a	-0.1540536
227	0xbe93ce74	-0.2886845
228	0xbda14f1f	-0.07876419
229	0x3e66eb15	0.22550614
230	0xbd8869d7	-0.06660812
231	0xbe79a64b	-0.24379842
232	0x3d6e06a3	0.058111798
233	0xbe0761a5	-0.13220842
234	0xbec3b7bc	-0.38226116
235	0xbdd76fa4	-0.10519341
236	0x3d113907	0.035454776
237	0xbd7d444c	-0.06183271
238	0xbe839d91	-0.2570615
239	0x3e235e0c	0.15953845
240	0xbe8d633f	-0.2761478
241	0xbc9636c4	-0.018336661
242	0xbd3937eb	-0.045219343
243	0x3e7c0bd1	0.24613883
244	0xbd77f4f0	-0.060536325
245	0x3d059e08	0.032621413
246	0xbe07b775	-0.13253577
247	0xbe813da8	-0.25242352
248	0x3c5c12b8	0.013432197
249	0xbdf28c95	-0.1184322
250	0x3dc84766	0.09779243
251	0x3de6ca10	0.11269009
252	0x3dab7e72	0.08373727
253	0xbe36ac80	-0.17839241
254	0x3e6d1bd1	0.23155142
255	0xbe4e5b88	-0.20152104

bias f4 [512]
0	0x3c98efee	0.018669095
1	0xbc84b827	-0.016201092
2	0x3b865caf	0.004100404
3	0xbb850fa4	-0.0040607024
4	0x3ca15b5a	0.01969688
5	0xbb5ce75e	-0.0033707242
6	0x3b41a5f2	0.0029548374
7	0x3b862433	0.0040936708
8	0xbccc16ae	-0.024913158
9	0xbc2ee0b4	-0.010673691
10	0x3b7ac24c	0.0038262783
11	0xbc937044	-0.017997868
12	0xbbfa03a6	-0.0076298295
13	0xb97893b4	-0.00023706147
14	0x3a4485a5	0.0007496721
15	0xbc8ba056	-0.017044228
16	0x3c95930c	0.018258594
17	0xbc997823	-0.018734043
18	0xbc9c9f73	-0.019119
19	0xbc85c908	-0.01633121
20	0xb8c04ee0	-9.169965e-05
21	0x38b2f97c	8.5341715e-05
22	0xbc6db559	-0.014508569
23	0x3ba6d759	0.0050915894
24	0xbc4db838	-0.012556128
25	0x3be32bbd	0.0069327042
26	0x399366c0	0.0002811458
27	0xbae7ca56	-0.0017684202
28	0x3bbefd1c	0.005828513
29	0xbcddebd2	-0.027089987
30	0x3c8ab7fd	0.016933436
31	0xbc08a5f6	-0.008340349
32	0xbbcd2088	-0.0062599815
33	0xbb80c99e	-0.0039302846
34	0xbb0ff9e6	-0.002196902
35	0x3c93b475	0.018030385
36	0x3c978649	0.01849665
37	0x3c014186	0.007889157
38	0x3c8898e5	0.016674468
39	0x3cff1986	0.0311401
40	0xbc6ac3b5	-0.014328887
41	0xbc02f204	-0.007992271
42	0xbc9fc56d	-0.01950332
43	0xbaaa2604	-0.00129813
44	0xba51ff1a	-0.00080107304
45	0xb9eb2c40	-0.00044855662
46	0xbca1607c	-0.019699328
47	0x3ce82ef2	0.028342698
48	0x3ca0ac9a	0.019613553
49	0x3c6c0190	0.014404669
50	0xbbfb01a8	-0.0076601095
51	0x3b003ed7	0.0019568705
52	0x3bd2563e	0.0064189723
53	0x3c693b89	0.014235386
54	0x3ca0d4b3	0.019632673
55	0xbbed9cff	-0.0072513814
56	0xb9a5b4a4	-0.0003160584
57	0xbc818ef9	-0.015815245
58	0x3b6f9abf	0.0036560742
59	0x3b41c19e	0.0029564868
60	0x3c96e4bc	0.018419616
61	0x3cbd8f83	0.02313972
62	0xbc576130	-0.01314573
63	0xbb98b097	-0.004659723
64	0x3ac04cd7	0.0014671338
65	0xb9a3da40	-0.00031252392
66	0x3c784e48	0.015155382
67	0x399d6890	0.0003002328
68	0xbc9dfc0c	-0.019285224
69	0x3c3da5cc	0.011575174
70	0xbca11e11	-0.019667657
71	0xbc5f139c	-0.013615515
72	0xbb66abf4	-0.0035197707
73	0x3c20b924	0.009809766
74	0x3c194940	0.009355843
75	0x3b82c216	0.003990422
76	0x3c9ee40e	0.019395854
77	0xbbcd8474	-0.006271893
78	0x39f77094	0.00047195388
79	0x3a463d10	0.00075621996
80	0x3c292f6b	0.010326247
81	0x3bed3c1b	0.007239831
82	0x3a80dd42	0.0009831565
83	0x3c8f814c	0.017517708
84	0xbc838f59	-0.016059564
85	0xbb5de8ea	-0.0033860751
86	0xbba79832	-0.0051145786
87	0x3b26734a	0.0025398307
88	0x3bce4315	0.006294618
89	0x3c21bc27	0.009871519
90	0xba08f494	-0.0005224433
91	0x3bb0ffe8	0.0054016
92	0x3b8a78b8	0.0042258166
93	0x3c9910dc	0.018684797
94	0x3c608e11	0.013705746
95	0x3c9849a1	0.018589796
96	0x3c2b2af7	0.010447255
97	0x3c2707cc	0.01019473
98	0xbc9b8688	-0.018985048
99	0x3b67b4d6	0.003535559
100	0x3c93a64e	0.018023636
101	0x3c64d1a2	0.013965996
102	0xbca0c53e	-0.019625302
103	0xbb1b8571	-0.002373066
104	0xba841d52	-0.0010079539
105	0xbc7b92f2	-0.015354859
106	0x384dcd90	4.9067254e-05
107	0x3c6fa2da	0.014626229
108	0x3ccbac88	0.024862543
109	0x3b19075a	0.002335033
110	0x3cedc590	0.02902487
111	0xbccdfb81	-0.02514434
112	0x3c02346b	0.007947068
113	0xba71d86a	-0.00092256686
114	0xbb271ab2	-0.002549809
115	0x3c8a2f2c	0.016868196
116	0xbc476083	-0.012169006
117	0xbc4fe049	-0.012687751
118	0x3c8b2ae7	0.01698823
119	0xbc8d6b38	-0.01726304
120	0xba51b36f	-0.0007999455
121	0x3bbedb82	0.005824507
122	0xbb9e6467	-0.0048337462
123	0xbb3f79c6	-0.002921687
124	0xbc7c0f5f	-0.015384524
125	0x3a00635e	0.00048976194
126	0xbb914276	-0.0044329716
127	0x3c7bd4ca	0.015370557
128	0xbc952e23	-0.018210476
129	0x3d07d0a9	0.03315798
130	0x3cadfb60	0.021238029
131	0x3ca16ceb	0.019705256
132	0x3c9fc075	0.01950095
133	0xbaa14740	-0.0012304559
134	0x3cafd59c	0.021464162
135	0xbbf7597d	-0.0075485096
136	0xbbcd71e4	-0.0062696803
137	0xbc2b8d3e	-0.0104706865
138	0x39a548fe	0.00031525636
139	0x3b88caa7	0.0041745487
140	0xbc903b4e	-0.017606404
141	0x3b26aff0	0.0025434457
142	0x3a864a54	0.001024554
143	0x3d033ccb	0.0320404
144	0xbb3e02c4	-0.0028993348
145	0xbb1a7839	-0.0023570193
146	0x3aa94867	0.0012915254
147	0xbac15108	-0.0014748881
148	0x3c9eead0	0.019399077
149	0x3c12e2f1	0.00896524
150	0x3adbf412	0.0016781113
151	0x39d72828	0.00041037914
152	0x3c8c23b5	0.01710687
153	0xba9700bc	-0.0011520605
154	0xbca0af34	-0.019614793
155	0x3aafaf21	0.0013403633
156	0x3c9d1e17	0.019179387
157	0xbc88b42a	-0.016687471
158	0x3c9ae217	0.018906636
159	0x3c662ef3	0.0140492795
160	0xb9f691e0	-0.00047029462
161	0x3ca4c7df	0.020114837
162	0xbc86a851	-0.016437681
163	0xbbffba58	-0.0078041963
164	0xbb3e7b59	-0.002906522
165	0xbc6f0b2a	-0.014590064
166	0x3cd87ed4	0.026427664
167	0x39bd8e25	0.00036154795
168	0xbc87a630	-0.016558737
169	0xb9a14540	-0.00030759908
170	0x3c6ca692	0.01444401
171	0x3c64a46b	0.013955216
172	0xbb9f196a	-0.0048553245
173	0xbc8beb9a	-0.017080117
174	0xbc9c7113	-0.019096887
175	0x39a4b551	0.0003141561
176	0xba32b959	-0.000681778
177	0x3c474eb4	0.01216476
178	0x3c6b62a2	0.014366778
179	0x3c00735d	0.007840005
180	0xbb616163	-0.0034390322
181	0xbbfd9600	-0.0077388287
182	0x3b4ff5c6	0.0031732186
183	0xbbc525dc	-0.006016476
184	0x3bac9316	0.0052665574
185	0x3bcf824c	0.0063326713
186	0xbc6917fa	-0.014226908
187	0xbca0ab99	-0.019613074
188	0x39ad0c5c	0.0003300634
189	0x3b8fec9e	0.0043922206
190	0xbb94ac8a	-0.00453717
191	0x3982e833	0.00024968534
192	0x39a20f68	0.00030910526
193	0x3c8501c9	0.016236203
194	0xbb9810f0	-0.004640691
195	0x3c0c47eb	0.008562068
196	0xbc9a1fb7	-0.018813951
197	0x3b9ac184	0.004722776
198	0xba7933ad	-0.00095062965
199	0x3bee0812	0.0072641456
200	0x3b4de11e	0.0031414698
201	0xbc9076af	-0.017634718
202	0xbbcc3512	-0.0062319124
203	0xbb949a1a	-0.004534972
204	0xbc000b60	-0.007815212
205	0x3b5d2199	0.003374195
206	0x3b4e8b97	0.0031516307
207	0x3c90ff5c	0.01769989
208	0xbca040b6	-0.019562107
209	0xb9adf7cc	-0.00033181754
210	0x3c0a298d	0.008432758
211	0xbc9ff796	-0.019527238
212	0x3bdc0a44	0.006715091
213	0x3c8b64c8	0.01701583
214	0xbab71a9e	-0.0013969725
215	0x3c890451	0.016725691
216	0x3a3bfdf3	0.0007171325
217	0x3c2237e8	0.009901024
218	0xbc1da8e7	-0.009622789
219	0xbb4fe621	-0.003172286
220	0x3c8d1806	0.01722337
221	0xbc998fcc	-0.018745326
222	0xbbcb35e4	-0.0062014926
223	0xbb34ddb5	-0.0027597968
224	0xbbb0fcfe	-0.005401253
225	0xbc02db5e	-0.0079868715
226	0x3c7c3d44	0.015395466
227	0xba4311bb	-0.0007441302
228	0x3c01ffab	0.007934491
229	0xbbf8846a	-0.0075841444
230	0x3c858528	0.016298845
231	0x3c85abf2	0.016317341
232	0xbc7f5a66	-0.0155855175
233	0xbc328299	-0.010895395
234	0x39da27d8	0.00041609886
235	0xbb8965ad	-0.004193029
236	0x3b360259	0.0027772395
237	0x3c2548c2	0.010088148
238	0x3c01936d	0.007908684
239	0x3b19e160	0.0023480281
240	0x3a959e7e	0.0011415032
241	0x3b6a258e	0.003572795
242	0x3cf25898	0.02958326
243	0x39faa9c8	0.00047810213
244	0xba9091ae	-0.0011029744
245	0xb9ab774a	-0.0003270454
246	0xbccce66c	-0.025012217
247	0xbceee039	-0.029159652
248	0x3af0aa83	0.0018361363
249	0x3bf89efe	0.0075873127
250	0xbc00d8c4	-0.007864181
251	0x3ca15693	0.019694602
252	0xbc813d76	-0.015776377
253	0xbba6752c	-0.005079886
254	0x3c410e1e	0.011783151
255	0xbba039c0	-0.004889697

weight f4 [512]
0	0x3f85d410	1.0455341
1	0x3f62f405	0.88653594
2	0x3f78a78c	0.97130656
3	0x3f751741	0.9573861
4	0x3f70d0da	0.9406868
5	0x3f7baf74	0.98314595
6	0x3f79a96e	0.97524154
7	0x3f7adbce	0.97991645
8	0x3f7e1e5e	0.99265087
9	0x3f7174a4	0.94318604
10	0x3f67752e	0.90413177
11	0x3f7179ad	0.9432629
12	0x3f75db37	0.9603762
13	0x3f63470c	0.88780284
14	0x3f613231	0.8796721
15	0x3f6376fc	0.8885343
16	0x3f81b3e7	1.0133027
17	0x3f59a0c3	0.8501093
18	0x3f877fce	1.0585878
19	0x3f855a07	1.0418099
20	0x3f69e508	0.913651
21	0x3f737d07	0.9511265
22	0x3f854244	1.0410848
23	0x3f89908e	1.074724
24	0x3f684816	0.90734994
25	0x3f7ab8d6	0.9793829
26	0x3f67f94b	0.90614766
27	0x3f72a6eb	0.94785947
28	0x3f66b6c1	0.9012261
29	0x3f89db5f	1.0770072
30	0x3f7034e6	0.93830717
31	0x3f8270a2	1.0190623
32	0x3f7484b5	0.95514995
33	0x3f66e1d8	0.9018836
34	0x3f7a94f4	0.97883534
35	0x3f6073ed	0.8767689
36	0x3f5e0ad7	0.8673529
37	0x3f7764a2	0.9663793
38	0x3f7839fe	0.9696349
39	0x3f75aa63	0.95963115
40	0x3f89e20e	1.0772111
41	0x3f77ca2e	0.96792877
42	0x3f6dc40e	0.9287728
43	0x3f64b730	0.8934202
44	0x3f75443f	0.9580726
45	0x3f7d7de1	0.990202
46	0x3f75c46e	0.9600285
47	0x3f7ff3aa	0.99981177
48	0x3f7f6f3d	0.9977911
49	0x3f89b7ab	1.0759176
50	0x3f6d93ff	0.9280395
51	0x3f6f6c3b	0.9352452
52	0x3f5b5932	0.85682976
53	0x3f81a2c5	1.0127798
54	0x3f8377f9	1.0270988
55	0x3f7f9f17	0.99852127
56	0x3f74783c	0.95495963
57	0x3f79b1cd	0.9753693
58	0x3f840dec	1.0316749
59	0x3f87536d	1.0572335
60	0x3f7c47a1	0.985468
61	0x3f88ec40	1.0697098
62	0x3f7ed64e	0.99545753
63	0x3f805637	1.0026311
64	0x3f74a0d9	0.95557934
65	0x3f7a1d64	0.97701097
66	0x3f70db65	0.9408477
67	0x3f74e3ee	0.95660293
68	0x3f6cb4f3	0.92463607
69	0x3f862ba3	1.0482067
70	0x3f6d38a8	0.92664576
71	0x3f5cf77f	0.8631515
72	0x3f7fb55b	0.998861
73	0x3f7c6182	0.98586285
74	0x3f7bd696	0.9837431
75	0x3f77d332	0.96806633
76	0x3f8265df	1.0187339
77	0x3f7de7ab	0.9918162
78	0x3f6d4e68	0.92697763
79	0x3f82dd8a	1.0223858
80	0x3f7e9696	0.99448526
81	0x3f8280a0	1.0195503
82	0x3f849f74	1.0361161
83	0x3f831165	1.0239683
84	0x3f69a803	0.9127199
85	0x3f82c8e5	1.0217558
86	0x3f6b212f	0.9184751
87	0x3f6f8c74	0.9357369
88	0x3f81cc17	1.0140408
89	0x3f7488d6	0.95521295
90	0x3f7fc879	0.9991527
91	0x3f78de99	0.9721466
92	0x3f8603e9	1.0469943
93	0x3f7cb8ff	0.9871978
94	0x3f6ab186	0.9167713
95	0x3f68ca28	0.90933466
96	0x3f63cc8e	0.88984
97	0x3f7f0c36	0.9962801
98	0x3f82504f	1.0180758
99	0x3f7a340d	0.97735673
100	0x3f84847b	1.035293
101	0x3f64d48f	0.8938684
102	0x3f67fa44	0.9061625
103	0x3f7f8cc1	0.9982415
104	0x3f7ce342	0.9878427
105	0x3f81cd1c	1.014072
106	0x3f824055	1.0175883
107	0x3f787554	0.9705403
108	0x3f710847	0.94153255
109	0x3f6f9797	0.9359068
110	0x3f60071e	0.8751086
111	0x3f6b8884	0.9200518
112	0x3f68135d	0.90654546
113	0x3f83e16d	1.030317
114	0x3f68ecde	0.9098643
115	0x3f7e6b07	0.9938206
116	0x3f74f5e2	0.9568769
117	0x3f7779ef	0.9667043
118	0x3f84fe96	1.0390193
119	0x3f842454	1.0323586
120	0x3f717c94	0.94330716
121	0x3f688dcf	0.9084138
122	0x3f735cfa	0.95063746
123	0x3f8eb1ac	1.1147971
124	0x3f82a077	1.020522
125	0x3f7d7c94	0.99018216
126	0x3f6b1475	0.9182809
127	0x3f772b83	0.9655077
128	0x3f75e857	0.9605765
129	0x3f5f517f	0.8723373
130	0x3f6f1695	0.9339383
131	0x3f8155e8	1.0104342
132	0x3f8486a0	1.0353584
133	0x3f6422c5	0.89115554
134	0x3f5ef4b2	0.87092125
135	0x3f7fd6fc	0.99937415
136	0x3f87f2b2	1.062094
137	0x3f76c657	0.9639639
138	0x3f700416	0.93756235
139	0x3f74b5c1	0.95589834
140	0x3f85169c	1.0397525
141	0x3f6ed73b	0.93297166
142	0x3f79e77e	0.97618854
143	0x3f74fc80	0.95697784
144	0x3f86d6e0	1.0534325
145	0x3f80914f	1.0044345
146	0x3f79ab2b	0.97526807
147	0x3f6f004c	0.9335983
148	0x3f90add2	1.1303046
149	0x3f59efe8	0.8513169
150	0x3f6cfd26	0.92573774
151	0x3f888586	1.0665748
152	0x3f81be6c	1.0136237
153	0x3f7ceea9	0.98801666
154	0x3f6638e8	0.8993058
155	0x3f86c454	1.0528665
156	0x3f583eb2	0.84470665
157	0x3f7a48dd	0.9776743
158	0x3f74a8da	0.9557015
159	0x3f78924e	0.97098243
160	0x3f64a071	0.89307314
161	0x3f658252	0.8965198
162	0x3f8602cd	1.0469605
163	0x3f801d8b	1.0009016
164	0x3f7cd249	0.9875837
165	0x3f710057	0.94141144
166	0x3f701fbe	0.93798435
167	0x3f80caa5	1.0061842
168	0x3f75f168	0.9607148
169	0x3f871cde	1.0555685
170	0x3f71f4c5	0.94514114
171	0x3f7baaa0	0.9830723
172	0x3f850aa4	1.0393872
173	0x3f86d02f	1.0532283
174	0x3f862fd1	1.0483342
175	0x3f808857	1.0041608
176	0x3f7e895b	0.9942834
177	0x3f751a09	0.9574285
178	0x3f651980	0.89492035
179	0x3f831e87	1.0243691
180	0x3f56684f	0.8375291
181	0x3f828942	1.0198138
182	0x3f6c5c92	0.9232875
183	0x3f714ca5	0.94257575
184	0x3f7be91f	0.9840259
185	0x3f642216	0.8911451
186	0x3f823318	1.0171843
187	0x3f7d7e9d	0.9902132
188	0x3f867c18	1.050662
189	0x3f7013f0	0.9378042
190	0x3f766cc5	0.9625972
191	0x3f68bfb2	0.90917504
192	0x3f7d9f0f	0.9907083
193	0x3f7472d8	0.9548774
194	0x3f7dac4c	0.9909103
195	0x3f7f4681	0.99716955
196	0x3f684065	0.9072326
197	0x3f6e02e0	0.92973137
198	0x3f81fd43	1.0155414
199	0x3f828cfa	1.0199273
200	0x3f8145bd	1.0099407
201	0x3f89dc36	1.0770328
202	0x3f832ed0	1.0248661
203	0x3f7173db	0.94317406
204	0x3f7879a7	0.97060627
205	0x3f655468	0.8958192
206	0x3f84eb80	1.0384369
207	0x3f792b3d	0.973316
208	0x3f57cc66	0.8429626
209	0x3f814f91	1.0102407
210	0x3f6e36c8	0.9305234
211	0x3f68d972	0.90956795
212	0x3f7b95d6	0.98275506
213	0x3f67cd9f	0.9054813
214	0x3f8087b1	1.004141
215	0x3f5da340	0.86577225
216	0x3f715674	0.9427254
217	0x3f822087	1.0166177
218	0x3f6bd04a	0.921147
219	0x3f7c7942	0.98622525
220	0x3f709a99	0.939859
221	0x3f84b05d	1.0366322
222	0x3f6e32f6	0.9304651
223	0x3f79bbeb	0.97552365
224	0x3f6f4397	0.9346251
225	0x3f7d6b85	0.98992187
226	0x3f79e297	0.97611374
227	0x3f67cf71	0.90550905
228	0x3f611300	0.87919617
229	0x3f63d1ab	0.889918
230	0x3f7381a7	0.9511971
231	0x3f6ef245	0.93338424
232	0x3f634dcd	0.8879059
233	0x3f80ef42	1.0073016
234	0x3f8482be	1.0352399
235	0x3f700f6f	0.9377355
236	0x3f62f249	0.8865095
237	0x3f86cb17	1.0530728
238	0x3f8ba370	1.0909252
239	0x3f801297	1.0005673
240	0x3f7c40fb	0.9853665
241	0x3f5b0639	0.8555637
242	0x3f753786	0.9578785
243	0x3f850dbd	1.0394818
244	0x3f763e04	0.9618838
245	0x3f8888f8	1.06668
246	0x3f6c55b1	0.92318255
247	0x3f7e5def	0.9936208
248	0x3f7d2eb3	0.9889938
249	0x3f6f6581	0.9351426
250	0x3f72ef9d	0.9489687
251	0x3f8003a8	1.0001116
252	0x3f671dfc	0.9028013
253	0x3f80e8f3	1.007109
254	0x3f78bc02	0.9716188
255	0x3f8d6c52	1.1048682

bias f4 [512]
0	0x3d6ec322	0.058291562
1	0x3d854e1f	0.06509041
2	0xbd93a75a	-0.07209654
3	0xbd62b471	-0.055347864
4	0xbd8c1efc	-0.06841847
5	0x3d962083	0.0733042
6	0x3d69110b	0.05690102
7	0xbcc847b5	-0.024448255
8	0x3d6e406d	0.05816691
9	0xbd2df256	-0.042467438
10	0xbdd9320d	-0.106052496
11	0x3b925a12	0.0044663036
12	0xbc8fd412	-0.017557178
13	0xbd5187f0	-0.05115503
14	0xbe067516	-0.13130602
15	0xbdf5a9aa	-0.119952515
16	0xbce04365	-0.027375886
17	0xbdbbb77b	-0.091658555
18	0x3dc29566	0.09501152
19	0x3d8b0c26	0.067894265
20	0x3b3d0dd9	0.0028847365
21	0x3cdaf296	0.026727002
22	0x3d59861d	0.053106416
23	0x3d7ec650	0.062200844
24	0xbd2998d3	-0.04140551
25	0x3a4473b4	0.0007494048
26	0xbda0cc5a	-0.07851477
27	0xbd092bb4	-0.033488944
28	0xbcb2e1dd	-0.021836216
29	0x3d9ab621	0.075542696
30	0xbdada8d1	-0.08479465
31	0x3db2451d	0.087045886
32	0xbd1a5728	-0.037680775
33	0xbda0e79b	-0.07856675
34	0xbcbf274f	-0.023334173
35	0xbdbfda76	-0.0936784
36	0x3bfcfa52	0.00772027
37	0x3c1f7aa6	0.0097338315
38	0xbdd2548e	-0.10270034
39	0xbcd32c7f	-0.025778053
40	0x3c85c618	0.01632981
41	0x3d80d510	0.062906384
42	0xbc9a1d58	-0.01881282
43	0xbdbc2dc9	-0.0918842
44	0x3cf8833e	0.030336019
45	0x3d0f012c	0.034913227
46	0xbc218d8b	-0.009860407
47	0x3d7a7673	0.06114812
48	0xbc0ac5b7	-0.00846999
49	0x3d3cff34	0.04614182
50	0xbd33294f	-0.043740567
51	0x3c83a0e6	0.016067933
52	0xbe1196c9	-0.14217676
53	0x3d89c5bd	0.06727169
54	0x3e03bbfc	0.12864679
55	0xbb128652	-0.0022357893
56	0x3d1aa1d9	0.037752006
57	0x3d39c5d5	0.045354683
58	0x3d83197e	0.064013466
59	0x3d8881b1	0.06665362
60	0xbcd71df4	-0.0262594
61	0x3d8fb1e3	0.07016351
62	0x3d5393a5	0.051654477
63	0x3d116ae9	0.035502348
64	0xbdcf5852	-0.10124268
65	0xbd0c0080	-0.034180164
66	0xbc1646fc	-0.009172197
67	0xbd19ef76	-0.037581883
68	0xbcfa4913	-0.030552423
69	0xbd7207a2	-0.05908931
70	0x3c483d88	0.012221701
71	0xbd0ed2fb	-0.034869175
72	0x3d8516e9	0.064985104
73	0xbd331c68	-0.043728262
74	0xbcd8ef88	-0.026481405
75	0xbccc2605	-0.024920473
76	0x3d83daae	0.06438194
77	0x3cfd650f	0.030931978
78	0x3be344ba	0.006935683
79	0x3d53be8e	0.0516954
80	0xbd84dd93	-0.064875744
81	0x3df56345	0.11981825
82	0x3dc1f512	0.094705716
83	0x3d2b9227	0.04188743
84	0xbd727032	-0.05918903
85	0xba25f46c	-0.0006330672
86	0xbd57f95d	-0.052728046
87	0x3c8f377d	0.017482514
88	0x3d877c27	0.06615477
89	0xbd06deac	-0.0329272
90	0x3d347ef4	0.044066384
91	0xbdab1fbe	-0.08355664
92	0x3dabe7a4	0.08393791
93	0xbd3604ca	-0.04443816
94	0xbcec552c	-0.028849207
95	0x3c5b93b9	0.013401919
96	0x3d090917	0.033455934
97	0x3d8e8cfd	0.06960485
98	0x3cc6953e	0.024241086
99	0x3cdb6fe3	0.02678675
100	0x3d43164f	0.047628697
101	0xbd4add12	-0.049527235
102	0x3ccecdb4	0.025244571
103	0xbd45a6ed	-0.048254896
104	0x3d123ac0	0.03570056
105	0x3d360f7e	0.04444837
106	0x3de7b67e	0.113141045
107	0x3d00de3c	0.03146194
108	0x3d4bbfb4	0.04974337
109	0xbd51382e	-0.051078968
110	0x3d3bcd1c	0.045849904
111	0x3c6f83d0	0.014618829
112	0xbda8c40f	-0.0824052
113	0x3ca1dffc	0.019760124
114	0xbc8bea12	-0.017079387
115	0x3c5d3af1	0.013502822
116	0xbd04e63c	-0.03244613
117	0x3d083d4b	0.03326158
118	0x3c7630b8	0.015026264
119	0x3dadab01	0.08479882
120	0xbd7b1cb7	-0.06130668
121	0xbd63595b	-0.055505138
122	0xbd05693c	-0.032571062
123	0x3d8cb5a1	0.068705805
124	0x3cd3cbb6	0.025853973
125	0x3c2f5002	0.010700228
126	0xbd093147	-0.03349426
127	0xbcc5cb5e	-0.024144825
128	0xbc9b766a	-0.018977363
129	0xbd479a72	-0.048731275
130	0xbccb7bd8	-0.024839327
131	0x3d43d686	0.047812007
132	0xbd1d8c5d	-0.03846394
133	0x3c8aac51	0.01692787
134	0xbd2590d8	-0.040421337
135	0x3acaeed2	0.0015482551
136	0x3d38246c	0.04495661
137	0xbd16dedd	-0.036833633
138	0xbd301625	-0.04298987
139	0xbcc8ba3e	-0.02450287
140	0x3d8cc069	0.06872637
141	0xbdafae30	-0.085781455
142	0xbd25e295	-0.04049929
143	0xbdd8ec8a	-0.10591991
144	0x3c7e5808	0.015523918
145	0xbd0faad4	-0.035075024
146	0x3cbf4a70	0.023350924
147	0x3bfdc412	0.0077443207
148	0x3bbfbeed	0.0058516175
149	0xbdcbb2ad	-0.09946189
150	0xbdd71044	-0.10501149
151	0x3d308207	0.043092754
152	0xbd1a1644	-0.03761889
153	0xbc217450	-0.009854391
154	0xbc0384f4	-0.008027304
155	0x3d0bf3ce	0.034168057
156	0xbda33bef	-0.07970416
157	0xbd4346dd	-0.047675002
158	0xbd234262	-0.03985823
159	0xbd5bc6ad	-0.05365627
160	0xbd96097b	-0.07326027
161	0xbd11bda2	-0.03558124
162	0x3df00757	0.1172015
163	0x3d5b97bb	0.0536115
164	0xbdb0f2f7	-0.08640092
165	0xbd56ba02	-0.052423485
166	0xbcc55587	-0.024088634
167	0x3d4799cc	0.048730657
168	0x3c98feb1	0.018676134
169	0x3d74d90d	0.05977731
170	0x3d9f4302	0.077764526
171	0xbc7541aa	-0.014969269
172	0xbd32f3b2	-0.043689437
173	0xbd8f1ccb	-0.06987914
174	0x3dcd3066	0.10018997
175	0x3d3ccf40	0.046096087
176	0xbcd971dd	-0.026543552
177	0xbc91f0b6	-0.017814975
178	0xbcd23ccd	-0.025663758
179	0x3b9c9b44	0.0047792513
180	0x3c3c6957	0.011499724
181	0x3c9b1e0a	0.018935222
182	0xbce5eb77	-0.02806638
183	0x3c523204	0.0128293075
184	0x3caa72ab	0.020806631
185	0xbdd2b879	-0.102890916
186	0x3d12bd64	0.03582515
187	0xbdb4071e	-0.0879042
188	0x3d7d32db	0.061816078
189	0xbc45d3f8	-0.012074463
190	0xbd244aa2	-0.040110238
191	0xbd51f8be	-0.05126261
192	0xbce1ffa9	-0.027587729
193	0xbd20f634	-0.039297298
194	0xbd170529	-0.036870155
195	0x3d214d57	0.039380398
196	0xbd895ffb	-0.0670776
197	0xbcb26e63	-0.021781152
198	0xbd152ba5	-0.036418576
199	0x3e112356	0.14173636
200	0x3cefdee9	0.029281097
201	0x3d816428	0.063179314
202	0x3cbdaf71	0.023154946
203	0xbd3f1ad7	-0.046656456
204	0x3d10cd5c	0.035352096
205	0x3c314540	0.010819733
206	0x3cd266a8	0.025683716
207	0xbd8007fb	-0.06251522
208	0xbdd91af7	-0.10600846
209	0x3c8aebb8	0.016958103
210	0x3d990844	0.0747228
211	0x3d96bfb1	0.07360781
212	0xbd69dd28	-0.057095677
213	0xbd60d6de	-0.054892413
214	0xbdbdd76d	-0.09269605
215	0xbde46616	-0.11152284
216	0xbb5b26a3	-0.0033439777
217	0x3ccbe16e	0.024887767
218	0xbd80c982	-0.062884346
219	0xbc745ee4	-0.014915202
220	0xbd869845	-0.06572012
221	0x3cb413e4	0.02198214
222	0xbb22c00e	-0.0024833712
223	0xbd07c2b1	-0.033144657
224	0xbc6c4e3b	-0.0144229485
225	0x3a4f45de	0.00079068344
226	0x3d934c6c	0.07192311
227	0xbc047736	-0.008085063
228	0xbdf7732e	-0.12082516
229	0xbce71c2f	-0.028211681
230	0xbdeb8964	-0.115008146
231	0xbda457b7	-0.08024543
232	0xbdf0f3c1	-0.11765242
233	0xbd3f2b01	-0.04667187
234	0x3b3b3d6c	0.0028570546
235	0xbc6da822	-0.014505418
236	0xbdea1c6b	-0.114312015
237	0x3e207401	0.15669252
238	0x3d120f65	0.035659213
239	0xbd5ad473	-0.053425264
240	0xbcc239c7	-0.023709191
241	0xbcdf5c6d	-0.027265752
242	0xbc2181c3	-0.009857598
243	0xbc9aa86b	-0.018879136
244	0xbd52fbed	-0.051509786
245	0x3dd0bbde	0.10192083
246	0xbca5fd5e	-0.020262416
247	0xbcb10d32	-0.021612737
248	0xbba8941d	-0.0051446096
249	0xbd609790	-0.05483204
250	0xbcef9724	-0.029246874
251	0xba743d24	-0.0009316972
252	0xbd55ee65	-0.052229304
253	0x3b0741d9	0.0020638613
254	0xbce0c17c	-0.02743601
255	0x3e111feb	0.14172332

running_mean f4 [512]
0	0xbe0f9282	-0.14020732
1	0x3d25c923	0.040475022
2	0xbd02e07c	-0.031952366
3	0x3c86c1a5	0.016449759
4	0xbc5ac79b	-0.013353254
5	0x3e81a76f	0.25323054
6	0x3dda3dfb	0.10656353
7	0xbbac71d0	-0.005262591
8	0xbda5bbed	-0.080924846
9	0xbe543110	-0.20721841
10	0xbd9824ec	-0.07428917
11	0x3e1d642a	0.15370241
12	0xbc5a730c	-0.013333093
13	0xbd32c9a4	-0.04364933
14	0x3d94c015	0.07263199
15	0x3de02b89	0.10945804
16	0xbca114a9	-0.019663172
17	0xbdde00cc	-0.10839996
18	0xbe2e9691	-0.17049624
19	0xbe967be0	-0.29391384
20	0x3cd3358b	0.025782367
21	0xbe341a5a	-0.17588177
22	0xbc2fe6eb	-0.0107362075
23	0x3d962570	0.073313594
24	0x3d59f0c6	0.053208135
25	0x3e60597a	0.21909133
26	0xbd4b5bfc	-0.04964827
27	0xbc55d55c	-0.013051357
28	0xbddefe49	-0.10888345
29	0x3d6ca7a5	0.057777066
30	0xbd8f906c	-0.07009968
31	0xbe20678e	-0.15664503
32	0x3dcbf40c	0.099586576
33	0x3c881fdf	0.01661676
34	0xbebbd4de	-0.36685842
35	0x3c93fd7e	0.01806521
36	0xbd033577	-0.03203341
37	0xbced5380	-0.02897048
38	0x3d952645	0.0728269
39	0x3eaf1035	0.34192052
40	0xbd7af64e	-0.06127005
41	0x3b310868	0.0027013067
42	0xbe20cf8f	-0.15704177
43	0xbd9a37b8	-0.07530159
44	0xbeb8411d	-0.35987177
45	0xbe7d113d	-0.24713607
46	0x3e94567f	0.2897224
47	0x3e5380a6	0.20654544
48	0x3d0c4157	0.034242
49	0xbd10d9c0	-0.035363913
50	0x3e1c6407	0.15272532
51	0x3e7cd615	0.24691041
52	0xbe2ad5e6	-0.16683158
53	0x3dc947d3	0.098281525
54	0xbe6d9cd8	-0.23204362
55	0x3e22269b	0.1583504
56	0xbcde827e	-0.027161833
57	0xbe4ccdb4	-0.20000345
58	0x3c99db54	0.018781342
59	0xbe6b4d53	-0.22978716
60	0x3e6c98de	0.23105189
61	0xbe0125c5	-0.12612064
62	0x3dcd6f98	0.100310504
63	0x3e8978e7	0.26850054
64	0x3dec6b3f	0.11543893
65	0x3e5b9bdc	0.21446174
66	0xbdb3a322	-0.087713495
67	0xbdafb6a5	-0.085797586
68	0x3ea32e36	0.31871194
69	0xbd9d6b0b	-0.076864325
70	0xbe9828f8	-0.29718757
71	0xbd55dc94	-0.052212313
72	0x3cd34616	0.025790256
73	0x3d9efcc0	0.07763052
74	0xbc35736e	-0.011074884
75	0x3d91b7fb	0.071151696
76	0x3d3bef71	0.045882646
77	0x3e28ca78	0.16483486
78	0xbcf7cc41	-0.030248763
79	0x3de5cdd2	0.11220898
80	0xbe63948a	-0.22224632
81	0x3e4cd624	0.20003563
82	0xbde237e9	-0.1104582
83	0xbc3b36fa	-0.011426682
84	0xbee23456	-0.44180554
85	0xbea40909	-0.32038143
86	0x3ccd4c23	0.025060719
87	0x3e8c369c	0.27385414
88	0xbd99c603	-0.07508471
89	0x3d321f7e	0.043487065
90	0x3e9f80d4	0.31152976
91	0xbd9fae0c	-0.07796869
92	0x3e887713	0.26653346
93	0x3be7117b	0.0070516444
94	0x3e993a32	0.29927212
95	0xbe90a1f0	-0.28248549
96	0x3dcb8ea7	0.09939318
97	0x3cb24531	0.021761509
98	0x3efdcb2e	0.49569076
99	0xbdb7b68f	-0.08970367
100	0xbeb2f37a	-0.34951383
101	0xbeb2c2c5	-0.34914222
102	0x3e3310e7	0.17486916
103	0x3e050fc8	0.12994301
104	0xbeaf0142	-0.34180647
105	0xbe1ed8dc	-0.15512413
106	0x3d65e411	0.056125704
107	0x3e91cb37	0.28475353
108	0x3e2f1db7	0.17101179
109	0xbbb39ca9	-0.005481322
110	0xbe2a8f09	-0.16656126
111	0x3e8fed31	0.2811065
112	0x3cae81a7	0.021302057
113	0x3d87d7d8	0.06632966
114	0xbea8649e	-0.32889265
115	0x3e609d6e	0.21935055
116	0xbe5d92d6	-0.21638045
117	0x3d2ef6ec	0.04271595
118	0x3e391394	0.18073875
119	0x3d7a3fb7	0.06109592
120	0xbf05a4aa	-0.5220438
121	0x3d0ea941	0.03482938
122	0xbe13617c	-0.14392656
123	0x3da223b3	0.07916965
124	0x3e489335	0.19587405
125	0xbc9c9ee7	-0.01911874
126	0xbe1c437e	-0.15260121
127	0xbcf495f5	-0.029856661
128	0x3ea65471	0.324863
129	0x3e1b852b	0.15187518
130	0x3e394e88	0.18096364
131	0xbc33d61d	-0.010976342
132	0x3dd75324	0.10513905
133	0xbe4d9167	-0.20074998
134	0x3d432ffc	0.047653183
135	0xbd341325	-0.04396357
136	0x3e49a638	0.19692314
137	0xbd3e1a55	-0.04641183
138	0x3e04cf08	0.12969601
139	0xbe48a6b2	-0.19594839
140	0xbbd9af2a	-0.0066431956
141	0xbe6ad151	-0.2293141
142	0x3d91c6f1	0.07118023
143	0x3c577f2a	0.013152877
144	0x3d578f15	0.052626688
145	0x3dcda9fe	0.10042189
146	0xbeb13796	-0.3461272
147	0x3dabd414	0.0839006
148	0x3df44cf9	0.11928744
149	0x3e56ff17	0.20995747
150	0xbda3283b	-0.07966658
151	0x3e2beecb	0.16790311
152	0xbdeb7b5c	-0.11498138
153	0x3bb29496	0.0054498417
154	0x3c41bc0e	0.011824621
155	0x3d3371da	0.04380975
156	0x3d1a40bc	0.03765939
157	0x3e1cbeab	0.15307109
158	0x3e624424	0.22096306
159	0x3e85abb6	0.26107568
160	0x3e81d582	0.25358206
161	0x3e21fef1	0.15819909
162	0x390f25c6	0.00013651614
163	0xbe497a7d	-0.19675632
164	0x3d65be78	0.05608985
165	0x3e0777e8	0.13229334
166	0x3ef20e48	0.4727652
167	0x3dfdc6c8	0.1239143
168	0xbd97d755	-0.07414118
169	0x3e648906	0.22317895
170	0xbd37f544	-0.044911638
171	0xbdebd795	-0.115157284
172	0xbd3a92de	-0.04555022
173	0x3e4ec5db	0.20192663
174	0x3ea37f63	0.31933126
175	0xbe836731	-0.25664666
176	0x3e88fd01	0.26755527
177	0x3db48076	0.088135645
178	0xbddaa170	-0.10675323
179	0xbd3d6596	-0.046239458
180	0xbe1c6bac	-0.15275449
181	0xbeac18c4	-0.33612645
182	0xbe44c887	-0.1921712
183	0x3e38fdb9	0.18065538
184	0x3e634af3	0.2219656
185	0x3d0bd514	0.034138754
186	0xbd4ccde6	-0.050001048
187	0x3d0c6da6	0.034284256
188	0xbe1c43ac	-0.1526019
189	0x3ddd2200	0.107975006
190	0x3e30157f	0.171957
191	0x3e4f1268	0.20221865
192	0x3cb9319b	0.022606662
193	0xbe8608fa	-0.26178724
194	0xb9db7896	-0.0004186078
195	0xbdf1a0a4	-0.11798218
196	0xbe3aefd4	-0.1825555
197	0xbde33817	-0.11094683
198	0x3da78148	0.08178955
199	0x3e12d485	0.14338882
200	0xbe49af22	-0.19695714
201	0x3d408dad	0.047010113
202	0xbe6198a9	-0.22030891
203	0xbdd952bb	-0.10611483
204	0xbd8d52b6	-0.069005415
205	0xbbe2370b	-0.0069035343
206	0xbd0d6b1b	-0.03452597
207	0xba49e37c	-0.00077014393
208	0x3e11cbab	0.1423785
209	0xbe62ea27	-0.22159635
210	0xbc8f2edb	-0.017478397
211	0x3e17f8a1	0.14840938
212	0xbd8a7158	-0.067599
213	0x3e6aa315	0.22913773
214	0x3dea60b8	0.11444229
215	0x3d7695e6	0.060201548
216	0x3d26e6f1	0.040747587
217	0xbe25740f	-0.16157554
218	0x3e1cf510	0.15327859
219	0xbe4dffab	-0.20117061
220	0x3da82306	0.08209805
221	0x3d56d4dc	0.052449092
222	0x3ca975e4	0.020686097
223	0x3e17f954	0.14841205
224	0x3bd2818d	0.006424135
225	0x3bfbc0f7	0.0076829153
226	0xbe004215	-0.12525208
227	0xbe2e30f3	-0.1701086
228	0x3ea89acb	0.32930598
229	0xbb3d3f84	-0.002887697
230	0x3c9406a4	0.018069573
231	0xbe70c5a8	-0.235129
232	0xbd3d247e	-0.04617738
233	0xbc451c4f	-0.012030675
234	0xbd3c0148	-0.04589966
235	0xbdc51036	-0.096222326
236	0xbe864927	-0.26227686
237	0xbdbcb330	-0.09213865
238	0xbcd6ce66	-0.026221465
239	0xbd67c363	-0.05658282
240	0x3e1bfab5	0.15232356
241	0x3e1965a3	0.14980178
242	0x3edb6c46	0.42856044
243	0xbd03991a	-0.03212843
244	0xbe91a588	-0.28446603
245	0xbdd8e8cd	-0.10591278
246	0xbd3e4295	-0.046450216
247	0xbda7ec01	-0.08199311
248	0xbe40b8d8	-0.18820512
249	0x3e390c49	0.18071093
250	0xbdf487d4	-0.1193997
251	0x3d904c36	0.07045786
252	0x3d06939a	0.032855608
253	0x3dfc8294	0.12329593
254	0x3c1315b8	0.008977346
255	0xbdda89ef	-0.1067084

running_var f4 [512]
0	0x3e2b7d78	0.16747081
1	0x3e812a9d	0.25227824
2	0x3def2d8b	0.116786085
3	0x3eb16d7e	0.34653848
4	0x3e533f34	0.20629579
5	0x3e17fdb0	0.14842868
6	0x3e7e31f5	0.24823745
7	0x3e93f20c	0.28895605
8	0x3df03bab	0.11730131
9	0x3e2b1d1c	0.16710323
10	0x3ebffca9	0.37497452
11	0x3e8299f1	0.25508073
12	0x3e0a8b86	0.13529786
13	0x3e287ed4	0.16454631
14	0x3e95de57	0.29271194
15	0x3e0a9f22	0.13537267
16	0x3e3935e8	0.1808697
17	0x3e777e63	0.24169306
18	0x3eaa38bc	0.3324641
19	0x3e16a3e2	0.14710954
20	0x3e0e4064	0.1389175
21	0x3eaa205c	0.33227813
22	0x3e129b56	0.14317068
23	0x3e81a705	0.25322738
24	0x3e6c03f3	0.23048382
25	0x3e2ce100	0.16882706
26	0x3e03855f	0.12843846
27	0x3e30fe29	0.17284454
28	0x3e9bce10	0.3043065
29	0x3debfada	0.115224555
30	0x3e0a29ae	0.13492462
31	0x3e8c9ca0	0.27463245
32	0x3eab136f	0.33413264
33	0x3e14d3c7	0.14533912
34	0x3e41f515	0.18941148
35	0x3d98ea4d	0.07466564
36	0x3e9a5225	0.30140796
37	0x3d8403ea	0.06446059
38	0x3e7a90ef	0.2446935
39	0x3e627f56	0.22118887
40	0x3e1fd242	0.1560755
41	0x3d93ca46	0.07216315
42	0x3e2b03a5	0.16700609
43	0x3eb157f1	0.34637406
44	0x3e9649f7	0.29353306
45	0x3e83d08b	0.25745043
46	0x3e10888a	0.14114586
47	0x3e60018d	0.21875592
48	0x3de1d4b0	0.11026895
49	0x3e35776f	0.17721342
50	0x3e484c12	0.19560269
51	0x3e844607	0.25834677
52	0x3df08e11	0.11745847
53	0x3e948202	0.29005438
54	0x3eac8f1d	0.33702937
55	0x3e84b995	0.25922838
56	0x3e09b280	0.13446999
57	0x3e4c26b2	0.19936636
58	0x3e15d103	0.14630513
59	0x3e181e62	0.1485534
60	0x3e3f91a1	0.18707897
61	0x3df1fff0	0.11816394
62	0x3e671aed	0.22568865
63	0x3e2ff9cd	0.17185135
64	0x3e36631b	0.17811243
65	0x3e93c773	0.28863105
66	0x3ebea764	0.37237084
67	0x3ebc3643	0.36760148
68	0x3e5a9579	0.21346082
69	0x3e1e8d73	0.15483646
70	0x3e457abf	0.19285105
71	0x3ea105c2	0.31449705
72	0x3e65872e	0.22414848
73	0x3e10db59	0.14146174
74	0x3e72643d	0.2367105
75	0x3de6266d	0.11237798
76	0x3e1610de	0.14654872
77	0x3e0c2ab4	0.13688165
78	0x3e08787a	0.13327208
79	0x3e88afbf	0.26696584
80	0x3daa52b4	0.083165556
81	0x3e944095	0.28955522
82	0x3e16b94f	0.14719127
83	0x3e8f2678	0.27959037
84	0x3e78d199	0.24298705
85	0x3dfd18d5	0.12358252
86	0x3e3b038d	0.18263073
87	0x3eb3e0eb	0.35132536
88	0x3e670c39	0.22563256
89	0x3eabc3db	0.33547863
90	0x3e116656	0.14199194
91	0x3e0d6003	0.13806157
92	0x3e0df0c9	0.13861383
93	0x3e462138	0.1934861
94	0x3e82244a	0.2541831
95	0x3e4e1c0d	0.20127888
96	0x3e8332e9	0.2562478
97	0x3dbf9306	0.09354214
98	0x3e496b7e	0.19669911
99	0x3e10b719	0.14132346
100	0x3e8d6187	0.2761347
101	0x3e2803ce	0.16407701
102	0x3e6e433a	0.23267832
103	0x3e4950fd	0.19659801
104	0x3e7c0381	0.24610712
105	0x3e2eb097	0.17059551
106	0x3ea10256	0.31447095
107	0x3ec159f9	0.37763956
108	0x3eae8b80	0.34090805
109	0x3eaf54cb	0.3424438
110	0x3e9ff42a	0.3124097
111	0x3e3bb441	0.1833048
112	0x3e5d5318	0.21613729
113	0x3e4bdef6	0.19909272
114	0x3e353d6c	0.17699212
115	0x3e042ada	0.12906972
116	0x3e5aa6a4	0.21352631
117	0x3e4cf670	0.20015883
118	0x3e34fbd3	0.17674188
119	0x3e41fb9b	0.18943636
120	0x3ea5ed6a	0.32407695
121	0x3e2cc25c	0.16871017
122	0x3e3b722d	0.18305273
123	0x3e8056e2	0.25066286
124	0x3db2d3fb	0.08731838
125	0x3e180295	0.14844735
126	0x3e568678	0.20949733
127	0x3df81319	0.121130176
128	0x3e3858dd	0.18002649
129	0x3e6531a3	0.22382216
130	0x3e37b175	0.17938788
131	0x3e5f928f	0.21833251
132	0x3e6c563b	0.2307977
133	0x3e5b611a	0.2142376
134	0x3ee537d5	0.4476916
135	0x3dfb8abd	0.122823216
136	0x3e6af45c	0.22944778
137	0x3e1cd244	0.15314585
138	0x3e41f04d	0.18939324
139	0x3eb91b11	0.36153463
140	0x3e928508	0.2861712
141	0x3e852123	0.26001844
142	0x3e4aa243	0.1978846
143	0x3e10ec56	0.14152655
144	0x3e2d82fd	0.169445
145	0x3e437864	0.19088894
146	0x3e3e356b	0.18575065
147	0x3e5cd4db	0.21565573
148	0x3e3a0471	0.18165757
149	0x3e5be4ce	0.21474001
150	0x3e7f3966	0.2492424
151	0x3e60193f	0.2188463
152	0x3e92d05a	0.28674585
153	0x3e315998	0.17319334
154	0x3e76282f	0.24038766
155	0x3e12c518	0.14332998
156	0x3e391bc3	0.18076997
157	0x3e4220f8	0.18957889
158	0x3e9ba3b9	0.30398348
159	0x3dc82368	0.09772378
160	0x3e60c165	0.21948774
161	0x3e9fd16e	0.3121447
162	0x3e380f9c	0.17974705
163	0x3e21d8e6	0.15805396
164	0x3e859095	0.2608687
165	0x3e2e61dd	0.1702952
166	0x3dcb46b0	0.09925592
167	0x3e3652e8	0.17805064
168	0x3e25283d	0.16128631
169	0x3e583935	0.21115573
170	0x3ea4e0f1	0.32202867
171	0x3e95090c	0.29108465
172	0x3dece47c	0.115670174
173	0x3df5ed71	0.12008179
174	0x3e751b66	0.23936233
175	0x3e63c14b	0.22241704
176	0x3e26dd73	0.16295414
177	0x3e7fb57e	0.24971578
178	0x3ddd2214	0.107975155
179	0x3e627804	0.22116095
180	0x3eb363fd	0.35037223
181	0x3da51e5e	0.08062433
182	0x3e388918	0.18021047
183	0x3e273139	0.1632737
184	0x3e1ae724	0.15127236
185	0x3e5c10df	0.21490811
186	0x3dc2684d	0.0949255
187	0x3e4b8c22	0.19877675
188	0x3e379246	0.17926893
189	0x3e32f439	0.17475976
190	0x3e94dcc0	0.2907467
191	0x3e73bdaa	0.2380282
192	0x3e350f95	0.17681725
193	0x3e992537	0.29911205
194	0x3e840760	0.25786877
195	0x3e5d5964	0.21616131
196	0x3e212a52	0.157388
197	0x3ecec69d	0.40385905
198	0x3e0dad59	0.13835658
199	0x3e8be8ad	0.27325955
200	0x3e819473	0.2530857
201	0x3ea4ced3	0.32189044
202	0x3e249be7	0.16075097
203	0x3e3ee2b5	0.1864117
204	0x3edc723e	0.4305591
205	0x3eb19234	0.34681857
206	0x3dc2a5bd	0.09504268
207	0x3e6ae711	0.22939707
208	0x3e91928b	0.28432116
209	0x3e264993	0.16239004
210	0x3e2107a4	0.15725571
211	0x3eb5f5c2	0.3553906
212	0x3e5c1b0e	0.21494696
213	0x3e990c71	0.29892305
214	0x3e183e07	0.14867412
215	0x3df87701	0.12132073
216	0x3e3edcf4	0.18638974
217	0x3e2c16fc	0.16805643
218	0x3e363c08	0.17796338
219	0x3e68133d	0.22663589
220	0x3e3d3460	0.1847701
221	0x3e8e460e	0.27787822
222	0x3e42dbf5	0.1902922
223	0x3e17cdda	0.1482462
224	0x3e326a83	0.17423443
225	0x3e25ce50	0.16191983
226	0x3e092566	0.13393173
227	0x3e89104f	0.26770255
228	0x3e5bb382	0.21455196
229	0x3e5628db	0.20914023
230	0x3defd364	0.117102414
231	0x3db2924d	0.08719311
232	0x3e27b954	0.16379291
233	0x3dea030e	0.11426364
234	0x3e05cabf	0.13065623
235	0x3e516039	0.20446862
236	0x3e3fd9de	0.18735453
237	0x3e8c3ecc	0.2739166
238	0x3de45a0b	0.11149987
239	0x3e137d4d	0.14403267
240	0x3e0f3750	0.13985944
241	0x3eb86132	0.36011654
242	0x3e3a7200	0.1820755
243	0x3e12ea21	0.14347126
244	0x3e2efdb7	0.17088972
245	0x3dc4d633	0.09611168
246	0x3e17a0a8	0.14807379
247	0x3eb77292	0.35829598
248	0x3e2b2bf3	0.16715984
249	0x3e83050f	0.25589797
250	0x3e6182f0	0.22022605
251	0x3de66f73	0.11251726
252	0x3e0eac62	0.13932946
253	0x3df894bb	0.12137743
254	0x3ec7041d	0.38870326
255	0x3dae887e	0.085221276

weight f4 [256, 512]
0	0xbc7fe764	-0.015619133
1	0xbd928d75	-0.07155887
2	0xbc365622	-0.011128934
3	0x3de3110d	0.110872366
4	0x3c600fa9	0.013675609
5	0x3d389b18	0.045069784
6	0x3de2e971	0.11079682
7	0xbda5ca69	-0.08095247
8	0xbc9d6287	-0.01921202
9	0x3d06dc81	0.032925133
10	0xbd3d7040	-0.046249628
11	0xbc7ee446	-0.015557354
12	0xbc58ef55	-0.013240655
13	0xbd169aa8	-0.036768585
14	0x3cbad584	0.02280689
15	0xbd3500b2	-0.044190116
16	0x3daa90c2	0.083283916
17	0x3c715796	0.014730355
18	0x3d0befa2	0.03416408
19	0x3d23a488	0.03995183
20	0xbc8e5f63	-0.017379468
21	0x3ca3ed0d	0.020010496
22	0x3d84bf54	0.064818054
23	0x3db491de	0.088168845
24	0xbd319c82	-0.043362148
25	0x3d4d72f9	0.050158475
26	0x3db9f414	0.09079757
27	0xbcbf4ef2	-0.023353074
28	0x3a7f3760	0.00097357295
29	0xbc6627ff	-0.014047622
30	0xbd1aa67d	-0.03775643
31	0xbd4fd409	-0.05073932
32	0xbc4ea6d2	-0.012613015
33	0x3ac2735c	0.0014835405
34	0x3dcc3c5c	0.0997245
35	0x3d2c9c2f	0.042141136
36	0xbc6cdfd5	-0.014457663
37	0xbd87b0be	-0.06625508
38	0x3d7885dd	0.060674537
39	0xbd5795ad	-0.052632976
40	0xbd3d7a62	-0.04625929
41	0x3d75faf9	0.0600538
42	0xbd8419d1	-0.064502366
43	0x3dbcef17	0.0922529
44	0xbd82e37a	-0.06391044
45	0x3dcef8a0	0.10106015
46	0xbdbc9559	-0.09208173
47	0x3d4d39b1	0.050103847
48	0x3d21558d	0.03938823
49	0xbdc1f90c	-0.0947133
50	0xbcaae342	-0.020860318
51	0x3bd52115	0.006504188
52	0x3d9bfc0b	0.07616433
53	0x3dc79508	0.09745222
54	0xbbd5f921	-0.0065299426
55	0xbc6cdbb0	-0.014456674
56	0xbd018753	-0.031623196
57	0xbd8f2f4e	-0.069914445
58	0x3c43bcb6	0.011946848
59	0x3c92e226	0.017930102
60	0xbbc62666	-0.006047058
61	0x3cfc10cc	0.030769728
62	0x3d043cec	0.032284662
63	0x3c3dfc49	0.011595794
64	0xbd93bac4	-0.07213357
65	0x3d0fa032	0.035064884
66	0x3d2ea7dc	0.042640552
67	0xbd963258	-0.07333821
68	0x3d88d889	0.06681926
69	0x3c7c663e	0.015405236
70	0x3b3174ab	0.0027077596
71	0x3d53f905	0.051751155
72	0xbd6e04cc	-0.058110043
73	0x3d9eddcc	0.07757148
74	0x3d201e92	0.039091654
75	0x3d9c081b	0.076187335
76	0xbdd86ff8	-0.10568231
77	0xbddb3348	-0.107031405
78	0xbdb28d42	-0.08718349
79	0x3bb0dd93	0.0053975075
80	0xbd51442f	-0.051090416
81	0x3cf3a09e	0.029739674
82	0x3d27039e	0.040774934
83	0xbd2b8c10	-0.04188162
84	0xbd4cdb61	-0.050013904
85	0x3dbc6106	0.09198193
86	0x3bc3421b	0.005958808
87	0xbd5891b4	-0.05287333
88	0xbc46edf6	-0.012141695
89	0x3dbe77db	0.09300204
90	0x3b3cc722	0.0028805216
91	0x3d19a3f6	0.03750988
92	0x3d51a773	0.051185083
93	0xbd3020d7	-0.04300007
94	0xbc36c08b	-0.011154304
95	0x3b0cdcd8	0.0021493938
96	0x3d6d5a30	0.057947338
97	0xbd478083	-0.048706543
98	0xbbcbf8b5	-0.0062247165
99	0x3d212105	0.03933813
100	0x3d1aeb6f	0.037822183
101	0x3db90f6a	0.09036143
102	0xbd4158ed	-0.047203947
103	0xbde8ef10	-0.113737226
104	0x3d62efa6	0.055404328
105	0xbbd8fddb	-0.006622059
106	0xbcce0387	-0.025148166
107	0x3c41cbae	0.011828346
108	0x3c6f4e05	0.014606004
109	0x3d0e85ad	0.034795452
110	0xbd8207c4	-0.063491374
111	0xbc9db7c5	-0.019252667
112	0xbcae4604	-0.02127362
113	0x3dab9628	0.083782494
114	0xbdc36bd6	-0.095420524
115	0xbde66bdf	-0.112510435
116	0xbd476c3a	-0.048687197
117	0xbd5a6bcf	-0.05332547
118	0xbd978c81	-0.07399846
119	0xb927012b	-0.00015926796
120	0x3ca24914	0.019810237
121	0x3b629196	0.003457164
122	0x3c927119	0.017876195
123	0x3dceaf92	0.10092081
124	0x3d6aafe8	0.057296664
125	0x3d2084e9	0.039189253
126	0xbdc047a7	-0.093886666
127	0x3c834fd2	0.016029272
128	0xbdb4f5f0	-0.08835971
129	0xbc98d4ed	-0.018656218
130	0xbc27a322	-0.010231765
131	0x3d936581	0.07197095
132	0x3d8c757c	0.06858346
133	0xbd487bb4	-0.048946097
134	0x3da6c696	0.08143346
135	0x3d733541	0.05937696
136	0xbdd2943c	-0.1028218
137	0xbd8cd00e	-0.06875621
138	0xbd852cf0	-0.06502712
139	0xbcb57e23	-0.022154873
140	0xbd1aa06e	-0.037750654
141	0x3cff658a	0.031176347
142	0xbdd9fd85	-0.10644058
143	0xbdbebc5e	-0.09313272
144	0xbb979638	-0.004626062
145	0x3cfad217	0.030617757
146	0xbc5d2b3b	-0.0134990765
147	0x3c7da458	0.015481077
148	0xbd89f0c1	-0.06735373
149	0x3d8101cc	0.06299171
150	0x3c915b3e	0.017743703
151	0xbd3b4dd8	-0.045728534
152	0x3d03d2be	0.0321834
153	0x3c552f0e	0.013011707
154	0x3d1ebcef	0.0387544
155	0xbd57085a	-0.0524982
156	0xbbff38d9	-0.007788759
157	0x3d3ee6a1	0.046606664
158	0xbd7aaa0e	-0.061197333
159	0x3d0f2fff	0.034957882
160	0x3d40edda	0.047101833
161	0x3db5291b	0.08845731
162	0x3d399b5e	0.045314185
163	0xbcc6a713	-0.02424959
164	0x3b6e33a6	0.0036346703
165	0x3cd5592a	0.026043493
166	0xbccf8c74	-0.025335528
167	0x3e2d5dda	0.16930333
168	0x3ce87ac7	0.028378857
169	0xbbfcebe5	-0.0077185505
170	0x3dfeb009	0.1243592
171	0xbcdfd0d7	-0.027321262
172	0x3d4acee2	0.049513705
173	0x3c9cc12e	0.019135084
174	0xbd168d48	-0.03675583
175	0xbd13411c	-0.035950765
176	0xbdba3740	-0.09092569
177	0x3d5f07d7	0.054450836
178	0x3bff0555	0.007782618
179	0xbd839aba	-0.06425996
180	0xbc08830c	-0.008332025
181	0x3d0aeedb	0.033919197
182	0xbc9fa9ec	-0.019490205
183	0xbd23917e	-0.039933674
184	0xbc732d66	-0.014842367
185	0xbce10d8e	-0.027472284
186	0x3cfeb547	0.0310923
187	0xbccb21bd	-0.024796361
188	0xbd283830	-0.04106921
189	0x3d9fa70c	0.077955335
190	0x3d2c175a	0.042014457
191	0x3ccf3be2	0.025297109
192	0x3cd7ed43	0.026358252
193	0xbda652e7	-0.08121281
194	0xbd5faeda	-0.05461011
195	0x3d9362c2	0.07196571
196	0x3a61d90c	0.00086154114
197	0x3c5cc7c0	0.0134753585
198	0xbca22ae7	-0.019795848
199	0x3d8442bd	0.06458042
200	0x3db9c68c	0.09071073
201	0x3d0a1ee9	0.033720884
202	0x3d76df8e	0.060271792
203	0xbce58866	-0.028019141
204	0x3d36b72d	0.044608284
205	0x3ccf2224	0.025284834
206	0xbd828c0b	-0.06374367
207	0x3c4ed5b1	0.01262419
208	0xbd07bfb4	-0.033141807
209	0x3da959fe	0.08269118
210	0xbd8fb209	-0.070163794
211	0x3dcac83d	0.09901474
212	0xbd923cc3	-0.07140496
213	0xbce3cfdf	-0.027809082
214	0xbe01a0f0	-0.12659049
215	0x3ceafa17	0.028683705
216	0xbd31ad17	-0.043377962
217	0xbdbb30fb	-0.09140202
218	0xbcf67f7d	-0.030090088
219	0x3dcde7a1	0.10053945
220	0x3c934788	0.017978445
221	0xbc9a2cc4	-0.018820174
222	0x3db3ad4e	0.087732896
223	0xbdb890d8	-0.09012002
224	0x3d8acece	0.06777726
225	0xbd6d3e14	-0.05792053
226	0xbd70444d	-0.058658887
227	0xbda77275	-0.08176128
228	0x3bd5e69a	0.006527734
229	0x3dcda36e	0.10040937
230	0xbd357e59	-0.044309948
231	0x3c7979ed	0.015226823
232	0x3d775f58	0.06039366
233	0xbdc14458	-0.09436864
234	0xbd8d616e	-0.06903349
235	0x3d1767b1	0.036964122
236	0xbd147f99	-0.0362545
237	0xbc5213ba	-0.012822086
238	0xbd2f50da	-0.042801715
239	0xbcec6c70	-0.0288603
240	0xbdaa2945	-0.08308653
241	0x3d9f03b9	0.07764382
242	0xb903d4f8	-0.0001257247
243	0xbd1467ac	-0.03623168
244	0x3d140d0c	0.036145255
245	0x3d246f4b	0.0401452
246	0xbd5c862a	-0.053838886
247	0xbda523e1	-0.08063484
248	0xbda4d585	-0.08048538
249	0xbd7ec6ee	-0.062201433
250	0x3d0859e9	0.03328887
251	0x3cb8ede1	0.022574367
252	0xbc9946ab	-0.018710455
253	0xbd40fa86	-0.047113918
254	0xbde1b59c	-0.11020967
255	0x3d186a3c	0.037210688
